apk/assets/siamese_fe.tflite (tflite, 285304 bytes, 42 tensors)

siamesefcpp_1/MobilenetV3/Conv/BatchNorm/FusedBatchNormV3 f4 [16]
000000 16 ba 54 3f 53 a9 67 bf 28 9a a2 be e7 11 31 bf
       0.83096445 -0.90492743 -0.31758237 -0.6916794
000010 aa db 94 bf 75 bd 92 3f 2f ca 67 be 8a 3b 83 bf
       -1.1629536 1.1464068 -0.2263572 -1.0252545
000020 ba 8e 5b 3f 2a 38 c5 be 90 51 61 bf e5 3e 0d bf
       0.8576466 -0.38519412 -0.8801508 -0.55174094
000030 96 fc 5d bf 84 c8 aa 3f b1 3e 86 3f ec 22 83 3f
       -0.8671354 1.3342443 1.0487882 1.0245032

siamesefcpp_1/MobilenetV3/expanded_conv/depthwise/BatchNorm/FusedBatchNormV3 f4 [16]
000000 6a a0 99 3e 72 60 13 bf aa 25 66 bf 26 51 53 3f
       0.300052 -0.5756904 -0.8990122 0.825457
000010 34 0e 02 bf 41 d1 03 40 51 22 2a 3f 0c 0c d9 3d
       -0.5080292 2.0596468 0.6645861 0.10598001
000020 e8 06 88 3f 3e fa 48 3d 3a 3d 40 3f 07 8e 0d bf
       1.0627108 0.049066775 0.75093424 -0.5529484
000030 18 82 04 3f dc 48 0a 3e 2c 9e bd 3f b2 3c b2 3c
       0.5176101 0.13504356 1.4813895 0.021757457

siamesefcpp_1/MobilenetV3/expanded_conv_1/depthwise/BatchNorm/FusedBatchNormV3 f4 [64]
000000 72 cd 10 3f 58 95 33 bf 44 b7 f2 3c f0 f2 e5 3e
       0.56563485 -0.70149755 0.029628403 0.4491191
000010 e7 47 34 bf f6 1f 69 3c 0e 4b 30 bf 44 20 e2 3e
       -0.70422214 0.0142288115 -0.68864524 0.44165242
000020 ad 69 09 bf c2 8e 8a bd df 3a 2c bd 2b ac 07 bf
       -0.53676873 -0.0676551 -0.04204833 -0.5299708
000030 ef 56 4a 3d e8 f1 5d bd ec fa ac be e9 48 0f bf
       0.049399313 -0.054185778 -0.33785188 -0.5597063
000040 00 af 80 3d 08 f5 12 bf 50 c3 a6 be 0c 88 44 be
       0.062833786 -0.5740514 -0.32570887 -0.19192523
000050 d8 08 cd be 43 fa 9b bb b8 26 cf bc ba c5 35 bf
       -0.4004581 -0.004760058 -0.025287017 -0.7100483
000060 ba 7c 07 bc 3f 8d 16 bd bc 9e 99 3d c7 b2 27 bf
       -0.008269483 -0.036755797 0.07500979 -0.6550717
000070 9f eb 2e 3d 70 2a 9c bb 04 88 32 bd ae 2f 97 3f
       0.042705175 -0.004765801 -0.043586746 1.1811426
000080 74 b4 c0 3c 9c b1 1a bf 23 3d bf 3c ec 51 c9 3c
       0.023523547 -0.6042726 0.023344582 0.024575196
000090 48 b9 c3 3c 20 3e 7f bf 84 d1 35 bf c2 c1 1a be
       0.02389206 -0.9970417 -0.7102282 -0.15112975
0000a0 c6 4e 38 3f 46 b0 09 bf 5e b1 97 bf 4f d9 1a 3f
       0.719952 -0.53784597 -1.1851003 0.60487837
0000b0 36 ca 68 3d e2 6f 5f bd 34 ea da bc 00 0b ae 3a
       0.05683347 -0.05455006 -0.026723005 0.0013278425
0000c0 34 04 29 bf fa da 41 bd d2 07 0d 3f 38 47 69 bd
       -0.6602204 -0.047327973 0.5509006 -0.056952685
0000d0 70 67 3a bc 44 8f 00 3d 7c b4 6c 3f e0 4c 35 bf
       -0.0113772005 0.03138663 0.924629 -0.70820427
0000e0 73 79 19 3f a5 a1 66 3f 2e 2c 70 bf a1 69 0f 3f
       0.5995094 0.900904 -0.9381741 0.5602055
0000f0 1a 58 59 bc 47 7d 3c 3f 6c a4 c9 3e 70 eb 23 3a
       -0.013265634 0.7362866 0.39383256 0.00062530395

siamesefcpp_1/MobilenetV3/expanded_conv_1/expand/BatchNorm/FusedBatchNormV3 f4 [64]
000000 ef 45 93 be 84 7d 07 bf fc 57 57 be 80 90 9b 3f
       -0.28764293 -0.52925897 -0.21029657 1.2153473
000010 4f e5 42 3f 52 f8 c4 3f aa 70 56 3f 3f cd 80 3e
       0.7613115 1.5388281 0.8376566 0.2515659
000020 d4 5d bd 3e 60 d2 99 3f 92 d6 78 bf 8b 1d d0 be
       0.36985648 1.2017326 -0.9720241 -0.4064754
000030 6a 2c cd 3f 4f 64 b1 3e 4e e3 33 3f 15 5f 26 be
       1.6029179 0.34646842 0.70268714 -0.16247208
000040 ce c8 47 3f 23 e4 a9 bf 94 d2 3a 3e bd a1 15 be
       0.7804078 -1.3272747 0.18244392 -0.1461248
000050 03 2e cd 3f 62 2a 55 3f 0b f5 95 be e0 9e 53 3f
       1.6029667 0.83267796 -0.29288515 0.826643
000060 f2 35 36 3f 19 25 9b be 65 9f 29 be 9e 62 fd be
       0.71176064 -0.3030174 -0.1656471 -0.494893
000070 30 dd c1 3d 84 92 d9 bd db 6c e9 3e 73 92 9b 3e
       0.09466016 -0.10623649 0.45590863 0.3038517
000080 78 a1 28 3f 51 39 9a bf 80 4d af 3c 03 a3 dc 3e
       0.6587138 -1.2048742 0.02139926 0.43093118
000090 e8 e5 02 be c4 e5 b3 be 38 4d 25 be ec 0d 95 be
       -0.12783015 -0.35136235 -0.16142738 -0.29112184
0000a0 a3 14 71 3e 9f dd cf bf c0 f8 73 3f 12 38 05 be
       0.23543029 -1.6239508 0.9530144 -0.1300967
0000b0 fd 61 c6 3f 0c ca 9e 3f 83 c5 8c 3f 78 22 94 3d
       1.5498654 1.240541 1.0997776 0.07233137
0000c0 b0 fb c9 3d 27 52 43 3f c0 b8 97 bf 7d 6a 51 3f
       0.09862459 0.7629723 -1.1853256 0.81803113
0000d0 7c 53 38 3e 98 f2 e5 bd 4c 04 39 be 00 58 98 be
       0.18000597 -0.11227912 -0.18068045 -0.2975464
0000e0 f7 42 00 bf d9 50 0b bf 3a 36 40 3e 5b 9b cb 3e
       -0.5010218 -0.5442024 0.18770686 0.39766964
0000f0 8f 0c 74 be 6a 20 f3 3e 37 ae 73 bf f6 de 6e bf
       -0.23832916 0.47485667 -0.95187706 -0.9330896

siamesefcpp_1/MobilenetV3/expanded_conv_2/depthwise/BatchNorm/FusedBatchNormV3 f4 [72]
000000 85 b1 e5 3e fc 85 63 3f 6c 02 1c bf 92 90 97 3e
       0.44862 0.8887632 -0.60941195 0.29602486
000010 fc 6a 93 bf 73 b4 4e bd c9 8f 00 bf c4 6d 6c 3f
       -1.1517024 -0.05046506 -0.502194 0.9235499
000020 dc 73 df 3f 33 1a 0b be ae a5 82 3e ae a8 96 3e
       1.7457232 -0.13584213 0.2551703 0.29425567
000030 e8 05 64 3d e3 8c ab 3e 10 9c 92 bc df c7 9a 3f
       0.055669695 0.33505926 -0.017896682 1.2092246
000040 6c 3c d7 3e 80 f7 eb bb b0 7d f6 3e 5d f6 9d bf
       0.42038286 -0.007201135 0.48142767 -1.2340809
000050 0d 87 b3 3f ae 6a bd bc 88 36 25 3d 79 c0 88 3f
       1.4025589 -0.023122158 0.04033521 1.0683738
000060 c8 22 d0 3d b7 68 38 bf 38 1b 10 3f e4 46 9b 3d
       0.10162884 -0.7203478 0.5629153 0.07581881
000070 9c 5f 45 3d d0 a4 2f bf 72 fe 23 3d 03 27 85 bf
       0.048186883 -0.6861086 0.04003758 -1.040253
000080 1c aa b4 3c 4d f6 26 3f 13 89 a2 3e 4e 1f 1f 3f
       0.02205377 0.65219575 0.31745204 0.6215714
000090 43 bb 8c bf ce 05 e5 3e 21 97 1a 3f 53 6f 18 be
       -1.0994648 0.4473099 0.60386854 -0.14886217
0000a0 f1 73 46 bf 6f 75 35 3f 88 71 68 bf a9 97 75 bf
       -0.7752066 0.70882314 -0.90798235 -0.9593454
0000b0 82 95 b3 bd 7e bd 0e bf b0 cb 0c bf 85 79 89 3c
       -0.08768751 -0.5575789 -0.549983 0.016781578
0000c0 33 54 11 3f 40 15 68 3b 58 18 8b 3f 28 30 96 3c
       0.567691 0.0035413057 1.0866804 0.01833351
0000d0 7c 29 12 3e 4a bc 0b bf 0e dc af be ba db 29 3e
       0.14273638 -0.5458418 -0.34347576 0.16587725
0000e0 4d af 0b 3e 24 55 43 bd 3e 2e f5 be 94 54 78 3d
       0.1364109 -0.04768862 -0.47886842 0.060627535
0000f0 be 42 0d 40 fe 8e 62 3e b0 63 ed bd 58 c5 1c bc
       2.2071986 0.2212486 -0.115912795 -0.009568535
000100 a7 10 9c 3f a5 c7 b3 be 49 6d 88 3f ba aa 3b 3f
       1.2192582 -0.35113254 1.0658351 0.73307383
000110 ff 0e 12 bf db f6 76 be ff e0 21 3e 51 72 9b bf
       -0.5705413 -0.24117605 0.15808485 -1.2144262

siamesefcpp_1/MobilenetV3/expanded_conv_2/expand/BatchNorm/FusedBatchNormV3 f4 [72]
000000 d4 8a 00 bd 90 d5 b5 bd 52 85 95 3c 39 b2 b2 3c
       -0.031382397 -0.088786244 0.018252049 0.021813499
000010 bd 43 ba 3d 1a 7f 09 3e a8 d6 0b be ae d7 ce 3d
       0.09094951 0.13427392 -0.13656104 0.100997314
000020 fa 78 e1 3e 79 b7 34 bc a2 9e cf bd 4c 06 9d bd
       0.4403761 -0.011030071 -0.10137679 -0.07667217
000030 b5 46 10 3e cc 97 7a 3d 14 38 9f bd 1f 70 d6 3e
       0.14089473 0.06117992 -0.07774368 0.41882417
000040 c2 ca b6 3c d7 1e b4 3e 11 56 99 bd 4f 3e 31 3c
       0.02231348 0.3517978 -0.07487119 0.010818078
000050 b1 37 0e 3e 26 9e 02 3e 4b fb 16 3e d0 07 4d 3e
       0.13888432 0.12755641 0.14744298 0.20022511
000060 53 7d e7 3d 80 28 73 3d 9e 4d a6 bd 02 0a e1 3d
       0.113032006 0.059364796 -0.08120273 0.10988237
000070 44 65 66 3e b4 24 24 3c 07 ac d1 3d 77 dd 8b 3c
       0.22499567 0.010018516 0.1023789 0.017073376
000080 f4 7b ab 3d 9a d0 09 3e bb 40 0c bd 1c e5 23 3d
       0.083732516 0.13458481 -0.03424142 0.040013418
000090 45 8c 00 bd d1 c1 26 3d 72 c3 36 3d f3 70 42 be
       -0.03138377 0.04071218 0.044619985 -0.18988399
0000a0 10 16 7e be d0 04 9f 3d a9 f4 2d 3c e9 50 c1 3d
       -0.24813104 0.0776459 0.010617414 0.094392605
0000b0 19 b3 36 bd 7a ff 26 bd 21 6e 38 bd 16 5e 59 3c
       -0.044604395 -0.040770985 -0.045026902 0.013267061
0000c0 ba b0 8b 3c 49 9f d7 3d e2 9f 7d bd ad 67 01 3f
       0.017052043 0.10528428 -0.061920054 0.5054882
0000d0 96 d2 c5 3d c4 99 7b be c1 d7 7b 3e c9 80 0b bc
       0.09659307 -0.24570376 0.24594022 -0.0085145915
0000e0 22 d5 87 bd 47 25 05 3d 14 6a d4 3c a2 51 8b 3e
       -0.06632449 0.032506254 0.025929488 0.27210718
0000f0 51 fe 6c 3f be 91 ac 3d b0 ed 98 3e af 39 3d 3e
       0.92575556 0.084262356 0.2986884 0.18479036
000100 4f 7a 4d bc 47 5a b8 3e 49 40 e6 3e 81 8c 7d 3d
       -0.012541368 0.36006376 0.4497092 0.061901573
000110 ce 17 f3 bc e7 fb e0 3e 2c a9 2c 3d 66 9b 36 be
       -0.029674437 0.43942186 0.042153522 -0.17832717

siamesefcpp_1/MobilenetV3/expanded_conv_3/depthwise/BatchNorm/FusedBatchNormV3 f4 [72]
000000 ff 25 82 3f fa 92 14 3f 5e 64 9f 3f 26 69 41 3f
       1.0167845 0.5803677 1.2452505 0.7555107
000010 b2 81 5e bf 95 1c f1 be e7 06 ff be ea e6 3e 3e
       -0.8691665 -0.4709212 -0.49809954 0.18642774
000020 9a a4 6d 3f 4b a6 67 be bf ca 29 3f ed a0 6b 3e
       0.9282929 -0.2262203 0.6632499 0.23010607
000030 ef 22 c0 be 83 b1 41 bf 25 fe 51 3f c3 e9 23 be
       -0.37526652 -0.75661486 0.8202842 -0.16007142
000040 f0 0a 24 be ab e9 ef bd e6 24 8d 3d cb c4 6f be
       -0.16019797 -0.117144905 0.068918034 -0.23414914
000050 48 31 a6 be 89 8d 2f 3f d7 29 b9 3f e1 cd ea 3e
       -0.32459474 0.6857534 1.4465894 0.45860198
000060 b3 6e 55 3e 3c 2c 63 bd d5 67 dc 3e de f9 32 3f
       0.2084301 -0.055462107 0.43047968 0.6991252
000070 3c 86 a8 3f df f7 80 bf 3a e8 ab be 14 d3 11 3f
       1.3165965 -1.0075644 -0.33575612 0.56962705
000080 1a 9e 91 3e 54 f7 1e bf 9a 31 24 bf ec 9f 6f 3f
       0.28440934 -0.6209614 -0.64138186 0.93603396
000090 4d 10 9f bd 30 f6 ed be d6 7f f1 be 2c a0 c2 3e
       -0.07766781 -0.4647689 -0.47167844 0.38012826
0000a0 34 6e 62 be cd 3e 4f bd 48 59 64 be f0 55 7d bc
       -0.22112352 -0.050597 -0.22299683 -0.015462384
0000b0 d7 42 2a 3f a5 91 a6 3e 90 44 c4 bc c4 8f 89 3f
       0.6650824 0.32532993 -0.023958474 1.0746999
0000c0 e1 3a 04 3d db c7 18 be b3 86 0b 3e b0 3a 5a bd
       0.032282714 -0.14919989 0.13625602 -0.053278625
0000d0 cf 13 23 bf f7 d5 77 3f ee 5e c3 3f 75 68 e6 be
       -0.637021 0.9681086 1.5263345 -0.4500157
0000e0 f1 59 d1 be 6c ae 36 3f ac f8 4d 3f a2 b9 c6 3c
       -0.40888932 0.71359897 0.8045757 0.024258438
0000f0 60 98 00 3e 70 f1 d5 bd 59 ff 6a 3f 56 3a b3 3e
       0.12558126 -0.10446441 0.9179588 0.35005444
000100 4e d2 fa be 80 81 d8 3f c4 f4 95 bf 88 8c b0 3e
       -0.48988575 1.691452 -1.1715322 0.34482217
000110 c6 9d 19 bf 1e 90 0a bf b8 50 79 be f0 98 ac bd
       -0.6000637 -0.54126155 -0.24347198 -0.08427608

siamesefcpp_1/MobilenetV3/expanded_conv_3/expand/BatchNorm/FusedBatchNormV3 f4 [72]
000000 21 f3 30 3e 37 cf 36 3d 64 d0 21 3f 3e f6 02 bd
       0.17280246 0.04463121 0.63208604 -0.031973116
000010 5c 21 3b bd 86 7d f2 3c 4c 58 10 bd 6a 22 77 3f
       -0.04568611 0.02960087 -0.035240456 0.96536887
000020 a7 73 5d bc 9d f7 0b 3e d1 d8 dc 3c 86 53 66 3d
       -0.013516343 0.13668676 0.026958855 0.056231998
000030 d6 32 55 3e 60 08 c4 bc 2d d2 bf bd c0 7d a8 3e
       0.20820174 -0.023929775 -0.0936626 0.3290844
000040 14 f7 e7 bc 84 04 33 3e 90 4d b4 3e b3 7e d4 3c
       -0.028316058 0.17482191 0.35215425 0.025939321
000050 f3 af d2 3e 12 b5 0f 3b 03 17 15 3f 6a 3b d4 3d
       0.41149864 0.0021927995 0.5823824 0.10362895
000060 78 3a 81 3f 59 f9 1d 3f 69 52 a0 3d 88 46 1d bd
       1.0095968 0.617086 0.078282185 -0.038397342
000070 a4 3d e3 3e fb 0a 53 3e e4 2c ca bc 61 3b bc 3d
       0.44382966 0.20609657 -0.024679609 0.09191013
000080 3c 4b de bb 4d af e8 3d 23 a4 4d bd e2 cf 8a 3d
       -0.006783871 0.11361561 -0.05020536 0.06777932
000090 77 92 72 3e 96 14 85 be 26 85 3f 3c e1 94 06 bd
       0.23688684 -0.25992268 0.01168946 -0.032856826
0000a0 72 ff 1c bc a1 de 22 3f 06 aa 8e 3e 6a 64 fb 3e
       -0.009582387 0.63620955 0.27864093 0.49100047
0000b0 46 37 a5 3e 7b 5a af be 23 b5 01 3f 25 79 9c bb
       0.32268733 -0.3424872 0.5066702 -0.0047751837
0000c0 3e 72 5c 3f 3d 70 b1 3e c3 d4 0c 3c fb 71 93 3e
       0.8611182 0.34655944 0.008595648 0.28797898
0000d0 71 6e 68 bd 8d 34 9f 3c c6 d8 fc 3e 8f 05 60 3d
       -0.05674595 0.019434238 0.49384135 0.0546928
0000e0 5a 7d c5 bd 93 e3 8c bb ff bc a8 3e 0a 8b f7 3e
       -0.096430495 -0.00429959 0.32956693 0.48348266
0000f0 7c f4 64 3e e9 01 4f 3e 16 a7 46 3c b6 83 3e 3d
       0.22358888 0.20215572 0.012124797 0.046512328
000100 a3 a3 60 3e f7 ab d9 3e 68 8c 80 bd 3e c9 e5 3e
       0.21937422 0.4251401 -0.0627678 0.44880098
000110 05 3d c9 bd 1c 56 42 be e9 72 d3 3e c8 d2 a1 3c
       -0.09826092 -0.1897816 0.41298607 0.019753829

siamesefcpp_1/MobilenetV3/expanded_conv_4/depthwise/BatchNorm/FusedBatchNormV3 f4 [120]
000000 86 d9 d0 3d 05 d2 aa bf e8 f2 81 3d 6b 46 0f 3f
       0.10197739 -1.3345343 0.06345159 0.55966824
000010 fa 79 13 be d7 64 59 3f 12 13 2d be 59 f4 24 3d
       -0.14401999 0.84919494 -0.16901806 0.04027209
000020 2d 16 db be ee 06 40 be 02 8b 1a bf c4 26 f8 3c
       -0.42790356 -0.18752643 -0.6036836 0.030291922
000030 bb 95 0f be fc b0 3c be 8d 55 73 3f e6 37 cc bd
       -0.14021961 -0.18426889 0.95052415 -0.09971599
000040 42 a2 46 3f 62 d0 d8 3d e2 86 f5 be 10 00 76 bc
       0.77591336 0.10586621 -0.4795447 -0.015014663
000050 ce 0f 3c be d6 4e cd be a0 2f 98 3e c7 0a c0 3e
       -0.18365404 -0.4009921 0.29723835 0.37508222
000060 62 91 65 3f 7d 94 64 3f 0c ff f8 3c 56 9a b7 3c
       0.8967496 0.89289075 0.030395053 0.02241246
000070 87 3a 60 3f 72 ef 9a 3e c0 fe 4e bf 9c 5a fa 3c
       0.87589306 0.30260807 -0.8085747 0.030560784
000080 c0 f0 91 bf 18 7d 5e 3e 93 41 61 3f ce b4 85 3e
       -1.1401596 0.21727407 0.87990683 0.26114506
000090 aa f1 c5 be 2c 15 0f 3f e0 10 83 3f ba 0a fd be
       -0.38660938 0.5589168 1.0239525 -0.49422246
0000a0 80 db e7 3b b0 a9 95 3d 2d b2 89 bf 96 e4 e8 be
       0.007075727 0.07307756 -1.07575 -0.45486897
0000b0 0c 1a 0e be 4b ff 56 3f bb 4b 13 3f c0 57 8f be
       -0.13877124 0.83983296 0.5753743 -0.27996635
0000c0 fe 20 36 bf 18 f6 ef 3e 9a ee 13 bd d3 18 8e bd
       -0.7114409 0.46867442 -0.03611622 -0.069383286
0000d0 20 f7 29 bc 59 a0 91 3f 06 c1 77 bd ce bc 9b 3d
       -0.010373861 1.1377059 -0.060486816 0.07604371
0000e0 03 a3 8f bf a0 e4 a7 bd 61 4d ba bd 74 0c 0b be
       -1.1221622 -0.08197904 -0.0909679 -0.13578969
0000f0 0d e2 09 bd c6 d5 98 be 90 21 11 be 85 21 2f 3f
       -0.033662844 -0.29850596 -0.1417296 0.6841052
000100 48 3f 00 3e be f7 2f 3f f3 53 84 be 5c e6 68 3c
       0.1252414 0.687374 -0.25845298 0.014215078
000110 86 24 0b be 7a 8a 4e bf 94 0b df 3d 5a cf a5 3f
       -0.13588151 -0.8068005 0.1089088 1.2953904
000120 22 88 fb 3d 0a 12 af be 17 d0 e8 be 6e c9 30 3e
       0.12281825 -0.3419345 -0.4547126 0.1726434
000130 6c d9 99 bf 37 21 79 bf bb d8 94 3f 81 1d f2 be
       -1.2019477 -0.97316307 1.1628641 -0.47288135
000140 a6 61 12 bf 08 5b 84 3d 24 e6 eb 3e 5e 51 c7 be
       -0.5718025 0.06462675 0.4607402 -0.38929266
000150 4e c8 06 be af ae 4d 3f 00 39 bd 3b 30 ad db 3b
       -0.13162348 0.8034467 0.005774617 0.006703995
000160 56 d4 dd bb 4a 14 a5 3e 87 b7 6e 3f 0a c2 59 3f
       -0.006769697 0.32242042 0.9324879 0.85061705
000170 bc 5f 2e bf 6e ee 43 bf 42 77 8c 3e f2 9a a3 3f
       -0.6811483 -0.7653569 0.27434736 1.278166
000180 aa ec 73 bf bb 39 2a bf f5 df 17 bf 02 9d 3e 3f
       -0.95282996 -0.6649434 -0.59326106 0.74458325
000190 f8 b7 96 3f 95 07 87 3f 82 da 4b be 9c 43 1a 3d
       1.1774893 1.0549189 -0.19907573 0.037662134
0001a0 3c 3b 81 3e 7c ff 37 bf f5 7f 7d 3f da a4 d8 be
       0.25240505 -0.71874213 0.9902337 -0.42313272
0001b0 65 0d 8b be be 94 fc be 67 02 13 bf 54 8f 61 3e
       -0.27158657 -0.4933223 -0.5742554 0.22027332
0001c0 29 ae f9 be fe 95 b6 be 01 5c 99 3e b2 ab 10 3e
       -0.48765686 -0.3566131 0.29953006 0.14127997
0001d0 78 90 c9 3e 02 f8 67 bd 89 2d 56 3f 30 44 54 bd
       0.39368033 -0.056633003 0.8366323 -0.05182284

siamesefcpp_1/MobilenetV3/expanded_conv_4/expand/BatchNorm/FusedBatchNormV3 f4 [120]
000000 30 c7 91 3e 85 5e dd 3c 97 9c 34 3f 45 78 32 3d
       0.2847228 0.02702261 0.7055144 0.04357173
000010 1d b5 a9 3c e2 07 a1 3c 68 53 7c 3e 7a 5d a5 3c
       0.020716244 0.01965708 0.24641192 0.020186175
000020 5c 71 57 bc 33 f1 5a 3e 35 ee 62 3c 05 9e b2 3d
       -0.013149586 0.21381073 0.013850738 0.08721546
000030 9c e1 45 3d 8b b0 99 3b 35 ed 19 3e 04 8b 52 3e
       0.04831086 0.004690235 0.15031894 0.20560843
000040 07 d3 a8 3e 49 0c 1b 3e 64 35 4a 3e a7 3d 9d 3e
       0.329735 0.15141405 0.1974693 0.307111
000050 4a d6 e2 3c fc 16 c1 bd ee 4f 04 3e ec 8b 76 3e
       0.027690072 -0.09428212 0.12921116 0.24076813
000060 aa 35 5a 3d a0 5e b5 3e 6f 39 3e 3e 7d 4b 7a 3e
       0.053273834 0.35423756 0.18576597 0.24442859
000070 38 47 f4 3d fa 1c 00 3e 84 81 10 3d ec 62 97 3e
       0.119276464 0.12511054 0.035279766 0.2956766
000080 0b 73 ea 3d 28 ce ad 3d 08 21 22 3c 99 87 62 3e
       0.11447724 0.08486587 0.009895571 0.22122039
000090 9d 52 15 3e 3f 8a b9 3d e8 ee 2a 3e 3d 46 76 3e
       0.14582296 0.090595715 0.16692698 0.24050231
0000a0 7c 89 f8 3d 28 d9 4c 3d 63 7f 43 3e ba 31 ca bd
       0.12135598 0.050011784 0.19091563 -0.09872766
0000b0 58 1e 2c 3e 13 05 34 3d 7b 78 88 3c 01 d5 17 3e
       0.1680845 0.04395015 0.016659012 0.14827348
0000c0 de e1 b4 3c e9 9d 3f 3e 83 c9 6a 3e 1f 6c 18 3e
       0.022080358 0.18712582 0.22928433 0.14884995
0000d0 ac 4a 91 3d 2c f2 cc 3d 2f 2e 79 3e 64 78 1a 3e
       0.07094321 0.10007128 0.24334024 0.15084988
0000e0 d2 a8 17 3e dc 40 08 bd 9c a8 68 3d f0 09 48 3e
       0.14810494 -0.03326498 0.056801423 0.19535041
0000f0 6a 6a 19 3e f8 d6 e5 3d 02 ef 33 bc c2 ee 93 bc
       0.14982 0.11222643 -0.010982277 -0.018058185
000100 48 fa 13 3e 8d ce fa 3d 5d 01 37 3d f9 2a 94 3e
       0.14450943 0.12246428 0.044679035 0.28939036
000110 3c 41 b0 3c dd 6b a1 bb 8f 13 2e 3e 4f da b6 3e
       0.021515481 -0.0049261884 0.16999649 0.3571343
000120 56 75 92 3d 52 c7 05 bc f3 bf 47 bc ba 7a 8c bc
       0.07151286 -0.008165197 -0.01219176 -0.017148364
000130 9e 8a cf bc ee 4b 9f 3e 7f e5 01 3d f3 94 10 3d
       -0.025334653 0.31112617 0.031713005 0.0352983
000140 76 27 07 3d 20 30 f3 3d c1 6d 96 bc d5 86 d0 3d
       0.032996617 0.118744135 -0.018362882 0.10181967
000150 55 ea cf 3d d7 cf c8 3e 60 f8 b5 3e 8b 87 f2 3d
       0.10152117 0.3922107 0.35541058 0.11842259
000160 5c f1 78 3d 45 57 ce be 80 5b 1a bd 66 13 5f bc
       0.060777053 -0.40300956 -0.037684917 -0.013615465
000170 ee 6e 84 3c 9a 41 a1 3d 11 67 78 3e 21 8e 42 3e
       0.016166177 0.07873841 0.24258067 0.1899953
000180 84 94 10 3d 27 41 cd bd f4 5c 2a 3d fd b9 a6 3c
       0.035297886 -0.100221924 0.041592553 0.020352358
000190 02 74 0f 3e 5a 6d 8f 3e e5 66 82 3e be d2 71 3e
       0.14009097 0.28013116 0.25469127 0.23615548
0001a0 76 e3 d9 3d e7 df 31 3e c2 62 5d 3d 6a 81 0c 3c
       0.10639088 0.17370568 0.05404926 0.008575777
0001b0 96 d0 7e 3d a7 64 01 3d 36 f1 f6 bd 56 bf ad 3e
       0.06221064 0.03159013 -0.12057726 0.3393504
0001c0 ec df 55 bd 87 06 8b 3c fa b0 ff 3d 7a 6a d4 3d
       -0.0522155 0.016970886 0.124849275 0.10371871
0001d0 d1 d3 8d 3d 1b 6f 19 3e 26 1b 51 3c 13 00 9c 3c
       0.069251664 0.1498379 0.01276282 0.019043004

siamesefcpp_1/MobilenetV3/expanded_conv_5/depthwise/BatchNorm/FusedBatchNormV3 f4 [120]
000000 c0 2e 07 bb b6 0e af bf fb 74 c2 be ed 98 32 bf
       -0.002062723 -1.3676364 -0.37979874 -0.69764596
000010 a2 a5 13 be 24 4b 85 3c 8c 2e 8d be 4a d1 5b 3f
       -0.14418653 0.016271181 -0.27574575 0.85866225
000020 db 56 8b bf 4e 7a ef 3d e2 48 00 bf 6c 22 a4 be
       -1.0885881 0.1169325 -0.5011121 -0.32057512
000030 19 30 88 bf 10 29 94 3e ae 4c 0a be 5a bc d4 3e
       -1.0639678 0.28937578 -0.13505813 0.4154995
000040 eb 0f 67 bf 2e 9f 98 be 2f 54 60 bf 88 4b 1a 3f
       -0.90258664 -0.29808944 -0.87628454 0.602715
000050 36 86 28 bf c1 71 59 3f 6b 61 8e 3e 3e ed 6f 3f
       -0.6582979 0.849392 0.278087 0.9372138
000060 a2 4f 9c 3e 3a 58 9c bf a6 05 dc 3d 78 b0 02 bc
       0.30529505 -1.2214425 0.10743265 -0.007976644
000070 be 64 65 3e 48 7e 2c 3e 47 8c 8a bf a0 91 43 bd
       0.22401711 0.16845047 -1.0824059 -0.0477463
000080 f6 cf 24 3d 1f 79 9d 3f fe 98 19 3e da d6 af 3f
       0.04023739 1.2302588 0.14999768 1.3737442
000090 0c 88 76 3f 4f 00 82 3f e7 7b 88 bf e2 6b 76 3e
       0.9630134 1.0156344 -1.0662812 0.24064592
0000a0 80 44 47 3a a9 03 73 3f 97 c1 26 3f d9 3c 33 3f
       0.0007601455 0.9492746 0.65139145 0.7001472
0000b0 45 97 3a 3f c4 d3 13 bf 7c c6 68 3d 88 16 24 bf
       0.7288707 -0.57745004 0.056829914 -0.6409688
0000c0 dc b1 3c bf 71 b6 85 3f 3a 81 6c 3f 74 6b 62 bf
       -0.7370889 1.0446302 0.92384684 -0.8844521
0000d0 cc 94 84 3f 1d 28 25 3f 5e 85 56 bf 77 75 8f 3e
       1.0357909 0.64514333 -0.8379725 0.28019306
0000e0 ba a9 b2 3d 21 b6 0b bf 6a b1 b2 bd 85 d6 4b 3f
       0.08723779 -0.5457478 -0.08725245 0.79624206
0000f0 27 a6 33 bf 9a 2b 76 bf 64 a9 47 bf a8 94 43 3c
       -0.70175403 -0.9616028 -0.77992845 0.011937298
000100 a0 49 80 3f 5e b0 8f 3f 86 df 62 3f 14 d2 7f 3e
       1.0022469 1.1225698 0.8862232 0.24982482
000110 1a 68 40 3f 5c 28 95 3f c4 24 03 3d 7e 2b b6 3d
       0.75158846 1.1652942 0.032017484 0.08895014
000120 d2 72 31 bf 20 30 9c 3e 80 50 c1 3e f8 f1 80 3f
       -0.69315827 0.30505466 0.3775673 1.0073843
000130 2e c9 6d be 98 63 0e 3e 84 13 66 bf 54 c1 7d 3f
       -0.23221275 0.1390518 -0.8987353 0.9912312
000140 b4 2f 72 3f 9a 1f a2 bf 49 b7 eb 3e 64 aa 22 3f
       0.9460404 -1.2665894 0.46038273 0.63541245
000150 e4 6e c2 bd 2b 7a b8 3e e0 d1 b7 bd ce dc 38 bf
       -0.09493807 0.36030707 -0.08975577 -0.7221192
000160 aa 95 11 bf 52 b7 e5 be 82 c2 3a 3f b2 fb 51 bf
       -0.56868994 -0.44866425 0.72953045 -0.8202468
000170 4c 16 6a 3f 35 87 f3 be b4 8a 21 3f 7b 30 32 3e
       0.9144027 -0.47564092 0.6310227 0.17401306
000180 38 7b 6f be f0 8d d9 3e 74 73 dd bd 2b 5b 87 bf
       -0.23386848 0.42491102 -0.108130366 -1.0574697
000190 07 05 97 bf bf 9f 1e bf a8 7e 0a bc bd 0d ce 3e
       -1.1798409 -0.61962503 -0.008453049 0.40244856
0001a0 7a 80 52 3f e9 2f 89 3f 7c 83 04 bf 7f 04 80 3f
       0.8222729 1.0717746 -0.5176313 1.0001372
0001b0 0e f1 8b 3f f0 64 8e bf 0d 99 ce 3f c3 7d 36 3f
       1.0932939 -1.1124554 1.6140457 0.7128565
0001c0 98 3b e5 be 48 55 ba be fc f8 d8 3e de 0c 6b bf
       -0.4477203 -0.3639319 0.4237746 -0.9181651
0001d0 40 53 21 be 64 40 e7 bc a3 79 82 bf d2 52 8a 3e
       -0.15754414 -0.028228946 -1.019337 0.27016312

siamesefcpp_1/MobilenetV3/expanded_conv_5/expand/BatchNorm/FusedBatchNormV3 f4 [120]
000000 ce 5f f6 3d 04 8b 11 3e aa 61 b7 3d d6 6e 0e 3e
       0.12029992 0.14213187 0.08954175 0.13909468
000010 19 73 01 3e 68 72 18 3e 2b f7 9f bd 62 87 6d 3d
       0.12641563 0.14887393 -0.078108154 0.05799044
000020 16 6e 2d 3d ec e4 43 bc e6 ff 25 3e 5a 90 0d 3d
       0.042341314 -0.011956435 0.16210899 0.034561493
000030 7a 3b 5b 3c 45 07 65 3b 9b ee fb bb 73 fa f7 3d
       0.01338088 0.003494696 -0.007688356 0.12108316
000040 1f ef f7 3c 42 79 8b 3e f0 4d 82 3c c2 8d f7 3d
       0.030265389 0.2724095 0.015906304 0.12087585
000050 9b 5e 39 bd c0 93 86 3d 59 c1 e3 3d ae 72 2c bd
       -0.04525624 0.0657115 0.111208625 -0.042101555
000060 a2 8f 2c 3b 25 be aa 3e 5c 5e 3d 3e 34 dc f5 bb
       0.002633073 0.33348194 0.18493026 -0.007503057
000070 e1 7a 16 bd 27 9c 6a 3c 14 eb 0d 3d d5 61 f5 3d
       -0.03673828 0.014319456 0.034648016 0.119815506
000080 48 86 a9 3d ab f4 1e 3e bd 38 43 3d c3 91 c8 3e
       0.08277565 0.15523021 0.04766153 0.39173707
000090 ab 44 bb 3c e9 67 8b bc 76 ec 05 bd 63 bd a5 bd
       0.022859892 -0.017017322 -0.03269621 -0.08092763
0000a0 d8 a9 bd 3e 3b 95 a7 3c a4 40 87 3e 7d 40 c9 bd
       0.37043643 0.0204569 0.26416504 -0.09826753
0000b0 ad 73 67 3e 40 eb 35 bd c4 ec fa 3d 3d 86 7b 3d
       0.2260272 -0.044413805 0.12252191 0.061407316
0000c0 4b 92 69 bc 8b 79 27 3e 8a 41 46 3c 88 ea 70 bd
       -0.01425607 0.16354959 0.012100587 -0.058817416
0000d0 25 00 d4 3d c9 ea c5 3d f0 bc 59 3d c2 cc 3b 3e
       0.1035159 0.09663922 0.0531587 0.18339828
0000e0 29 62 ba bd 27 e7 81 bd fa 35 bc 3d 02 1a 30 3d
       -0.09100754 -0.06342917 0.09189983 0.042993553
0000f0 ef 4d 18 3d 65 50 5e bc d8 8e dc 3c 98 61 3d bd
       0.0371837 -0.013568972 0.026923582 -0.04623565
000100 a8 2d 34 3d ae 39 a2 3c 14 66 b7 3d a4 f6 95 3d
       0.043988854 0.019802894 0.08955017 0.073224336
000110 91 b6 19 be ec bb 65 bc d3 bd 94 3d dd c7 c0 3d
       -0.1501105 -0.014021855 0.072627686 0.09413121
000120 23 bc 5e 3d cf 14 5e 3e f2 0c 2f 3e 61 3b 81 3d
       0.05437864 0.21687625 0.17094782 0.06310154
000130 d5 c4 27 3e 8a ed 75 3c 69 64 f4 3d 18 3d 0b bd
       0.16383679 0.015010247 0.11933214 -0.03399381
000140 e5 00 2a 3e 3c 81 c3 bb c5 b9 29 3e 01 84 6e 3c
       0.16601904 -0.0059663337 0.16574772 0.014557839
000150 d1 b3 1e bc 02 60 a3 bd ea a9 13 3e 52 49 89 3c
       -0.009686426 -0.079772964 0.14420286 0.016758595
000160 7e 13 0d bc 1e b0 26 3c 12 01 30 bd d2 0c 74 3d
       -0.008610604 0.010173826 -0.04296977 0.05958254
000170 f1 bc cc bc 15 ba 46 3d 4b 07 2e be 57 53 33 3e
       -0.024992438 0.048517305 -0.1699497 0.1751226
000180 e9 34 26 3e d2 09 ca bc 52 12 19 bc 43 f8 e8 3d
       0.16231121 -0.024662886 -0.009342747 0.11375477
000190 b2 00 c2 3d f5 46 27 3e b7 33 ec 3d 44 cc 7d bd
       0.09472789 0.16335662 0.11533301 -0.06196238
0001a0 72 4b bf 3b 9d 5b 44 3e 56 09 09 bc 54 6b b1 3d
       0.005837851 0.19175573 -0.008364042 0.08663049
0001b0 bb 96 ff 3d f3 dd d0 3a 49 9c c8 3e e6 9e a4 bd
       0.124799214 0.0015935287 0.39181736 -0.0803812
0001c0 63 57 87 bd 93 b8 ec bc 85 a7 21 3e 4e dc 85 3d
       -0.066084646 -0.028896606 0.1578656 0.065361604
0001d0 ed ad 1d 3e 55 d2 05 3e b4 fa 57 3d 46 55 81 3e
       0.15398379 0.13068517 0.052729324 0.2526037

siamesefcpp_1/MobilenetV3/expanded_conv_6/depthwise/BatchNorm/FusedBatchNormV3 f4 [240]
000000 40 b0 a0 3e 2c 45 04 bf dc 17 1c 3f 57 a4 22 bf
       0.31384468 -0.5166805 0.60973907 -0.6353201
000010 99 b1 0e 3f d0 4e 83 3f 30 b4 a5 3e 5f 4e 80 3f
       0.5573974 1.0258427 0.32364035 1.0023917
000020 a6 8b 14 be fc 18 8c 3e 32 98 6b 3d 00 8b 5d 3f
       -0.14506397 0.27362812 0.05751819 0.8654022
000030 64 99 b7 3f d8 3f 61 bf e7 97 9b 3f 01 c7 7f 3f
       1.4343686 -0.8798804 1.2155732 0.9991303
000040 94 88 86 3e 5a 7f 57 3e 32 dc 92 bf 3e 1a 6c bf
       0.26276076 0.21044675 -1.1473448 -0.9222754
000050 1a 8d 80 be 1f d9 23 3f d1 b2 58 bd 58 1a 88 bf
       -0.25107652 0.64003175 -0.052904908 -1.063304
000060 f0 06 86 3f 0b 95 10 3e 70 12 60 3f 48 ff ce 3d
       1.0470867 0.14119355 0.87528133 0.10107285
000070 18 e8 7d 3d b5 a5 9f bc 9c 40 9d 3e 24 2f 89 bf
       0.06198892 -0.019488195 0.30713356 -1.0717511
000080 7c 62 52 3f c9 98 62 bf 78 09 07 3f 93 37 3b bf
       0.82181525 -0.8851438 0.52748823 -0.73131675
000090 78 58 7d 3f 6b 08 97 3f 0e e2 57 bf 9e 08 66 bf
       0.9896312 1.1799444 -0.8432931 -0.898569
0000a0 b6 55 3c be 44 0e d6 be 97 cc 88 bf 67 d8 96 3f
       -0.18392071 -0.4180776 -1.0687436 1.1784791
0000b0 5f 43 63 bf 4f 7f 48 bf e8 cd 4f bf 1a 8e 47 bf
       -0.88774675 -0.7831926 -0.81173563 -0.77951205
0000c0 68 7d ae 3f dc 58 6b 3f 68 6f 47 be c4 6c 11 be
       1.3632021 0.91932464 -0.19476092 -0.14201647
0000d0 81 f6 a5 3d 8d d8 3b bf 60 9b 49 3f 52 bc 08 bf
       0.081036575 -0.73377305 0.7875271 -0.53412354
0000e0 15 54 33 bf dd 9a 79 bf b5 87 1d bf f0 ed 66 bf
       -0.70050174 -0.9750193 -0.615352 -0.90206814
0000f0 8a 02 7c bf e1 97 6b 3f 76 1c f8 3c 66 34 38 3f
       -0.98441374 0.92028624 0.030287009 0.71954954
000100 02 c8 69 3f 1e 29 79 3f 6b 46 65 3f 39 dd cc bd
       0.9132081 0.97328365 0.89560574 -0.100031324
000110 8c 91 63 bf ac fe b1 be 43 8e 92 be 6c 78 6d 3f
       -0.8889396 -0.34764612 -0.28624162 0.92761874
000120 1f 13 55 3d 42 dd 71 bf 79 87 7e 3f 47 ca 60 bf
       0.05202019 -0.9447824 0.99425465 -0.8780865
000130 77 f5 a1 3f c6 79 78 bf 86 bf d4 be 21 32 67 3f
       1.2653035 -0.9706081 -0.4155237 0.90310866
000140 08 d5 1e bf 48 bb 25 bf 21 41 0e bf dd 8d ad bd
       -0.6204381 -0.64738894 -0.5556813 -0.08474324
000150 a8 52 95 3d ae 77 57 3f 48 25 ae 3d 7e c1 9f be
       0.07291156 0.8416699 0.085032046 -0.3120231
000160 af 48 7e 3f e8 c1 32 3e f4 91 91 3f 8f 60 87 3f
       0.99329656 0.17456782 1.1372666 1.0576342
000170 07 62 64 be 5c 3d 6a bf 40 6e 7f bf cd 83 5a 3f
       -0.2230302 -0.91499877 -0.99777603 0.8535736
000180 cb 63 2c 3e 93 d7 98 bf f8 ff 6d be 56 88 bd bd
       0.16834943 -1.1940788 -0.23242176 -0.0925452
000190 da 91 ad be e6 dc 09 bf 0b 05 1d bf a4 e4 aa bc
       -0.33900338 -0.5385269 -0.6133582 -0.020860977
0001a0 e3 59 94 3e f1 5c 64 bf a9 8e 42 3f d3 88 5b 3f
       0.28974828 -0.8920432 0.7599893 0.8575565
0001b0 03 3b 7c 3f e6 18 a8 bf fc b4 53 bf f4 bd 3b 3f
       0.98527545 -1.3132598 -0.82698035 0.7333672
0001c0 62 77 51 bf bc fb 74 bf e8 94 83 bf 38 09 8b 3e
       -0.8182279 -0.95696616 -1.0279818 0.2715547
0001d0 1b 0e 78 bf 25 c4 93 3f 97 a4 a7 3f 06 6e e6 3e
       -0.96896523 1.1544234 1.3097104 0.45005816
0001e0 8a 5e 42 be fe 61 85 3f e0 e6 8a 3f e2 64 58 bf
       -0.18981376 1.042053 1.0851707 -0.84528935
0001f0 0a 1a c2 3e 7c 8d 4c be f0 5c 36 3f a0 ab 5f 3f
       0.3791049 -0.19975847 0.7123556 0.87371254
000200 97 8d 5e 3e 0a 71 8b 3f 65 bc 87 3f ab b9 2d be
       0.217337 1.0893872 1.0604368 -0.16965358
000210 df 1d fe be cb 64 6e bf fd b9 19 3e c0 af 88 bf
       -0.49632165 -0.9312255 0.15012355 -1.0678635
000220 bc 1f 4b bf 1e 47 90 be 18 ea 20 bc 6e cd 4c 3e
       -0.793453 -0.28179258 -0.009821437 0.2000024
000230 ca 5c 7d bf 98 81 83 3e e0 6c 91 3f 03 cf e9 3e
       -0.9896971 0.2568481 1.1361351 0.4566575
000240 67 4c 8d 3f 57 08 78 bf 00 3a 6d bf 4f 39 46 3f
       1.1038941 -0.96887726 -0.92666626 0.77431196
000250 d6 6d 5b bd fa ac 2d 3e af a8 1c 3e 16 ba 6a 3e
       -0.053571545 0.16960517 0.15298723 0.22922549
000260 db c1 81 bf 17 b2 47 3f ba 51 48 3e 51 44 3e bf
       -1.0137285 0.7800612 0.19562426 -0.7432299
000270 9c 04 cc be ce 01 35 bf 62 5e 4e bd 9c 8a 65 bf
       -0.39847267 -0.7070588 -0.05038298 -0.89664626
000280 87 70 7f bd 10 c6 28 bf 48 fd b1 3b 88 dd ff 3d
       -0.062363174 -0.6592722 0.005431805 0.124934256
000290 f8 92 73 bf 5e 2b 85 be 4b b0 e1 be 5a 82 45 bf
       -0.9514613 -0.2600965 -0.44079813 -0.77152026
0002a0 41 e2 a5 3e 83 2e 2b 3f 17 45 61 bf e2 d9 85 be
       0.3239918 0.66867846 -0.8799605 -0.26142794
0002b0 2f 8e 11 be 78 0e de 3e 38 ec bd be a9 48 c3 3f
       -0.14214395 0.43370414 -0.37094283 1.5256549
0002c0 33 2b 7e 3f 78 86 c9 bd 7a 7f af 3f 4e 10 f4 3e
       0.99284667 -0.09840101 1.3710778 0.4766869
0002d0 65 ab 95 3f 3d 77 ab 3f 37 0b fa be bb 1c 90 3e
       1.169293 1.3395764 -0.4883668 0.2814692
0002e0 0a 8d ba be b4 db 64 3f 17 31 19 bf cb f5 86 3f
       -0.3643573 0.8939774 -0.5984053 1.054376
0002f0 66 be c6 3f e0 a6 03 bf 21 d9 99 3f 98 75 ab be
       1.5526855 -0.51426506 1.2019387 -0.33488154
000300 8a 51 ff be 1c ac 09 be 31 1c 72 bf f7 d1 2b be
       -0.49866897 -0.13444561 -0.94574267 -0.16779314
000310 42 51 18 bf 08 a3 73 be 61 a4 3f bf e0 33 5e 3f
       -0.5949899 -0.2379266 -0.748602 0.86797905
000320 21 fa 4a 3f 0e 71 55 3e c0 f3 7d bd 94 03 8c 3e
       0.79287916 0.20843908 -0.062000036 0.2734648
000330 ca 9f 5f bf 2e c7 5f 3f ea a8 ae 3e 1c 16 e2 3c
       -0.87353194 0.874133 0.34113246 0.027598433
000340 4a 2c fd bd 42 4e d8 3d 70 89 3d bf 91 3a 0c 3f
       -0.12361963 0.105618015 -0.7403784 0.54776865
000350 b4 b6 76 3e 34 eb 91 3f e6 31 84 3f 10 20 63 be
       0.24093133 1.1399903 1.0327728 -0.221802
000360 d0 bf 3a bf a6 71 18 bd b9 26 62 3d 50 c5 60 bf
       -0.7294893 -0.03721776 0.05521271 -0.87801075
000370 25 46 28 be 4a 42 60 bf 02 11 24 bf 03 fe d0 be
       -0.16433008 -0.8760115 -0.6408845 -0.40818796
000380 20 79 5e be 30 43 45 3d da 99 a4 3f 92 02 6c 3f
       -0.21725893 0.048159778 1.2859452 0.9219142
000390 bc b8 73 3f 0a 06 65 3f 76 27 85 3f 5c ff 76 3f
       0.9520376 0.8946234 1.0402668 0.964834
0003a0 64 6a 35 be 20 8c 49 3f e3 0e 88 3f 1a f5 b3 be
       -0.17716366 0.7872944 1.0629543 -0.35147935
0003b0 b3 5f 4d 3d ab b9 77 be f5 f6 8f bf d4 0b 1f be
       0.050140094 -0.2419192 -1.124724 -0.15531856

siamesefcpp_1/MobilenetV3/expanded_conv_6/expand/BatchNorm/FusedBatchNormV3 f4 [240]
000000 30 a6 28 bd a1 02 48 3d f1 5c 2d bc 9a b3 89 bd
       -0.041174114 0.048830632 -0.010581241 -0.067237094
000010 bb fa d5 bb 98 58 e8 3c c1 99 c1 3d 17 8f c3 bd
       -0.0065301335 0.028362557 0.09453154 -0.095487766
000020 44 0c 0d bc d6 f3 a3 3d b6 54 ac 3d 74 b1 06 3e
       -0.008608881 0.080054924 0.08414595 0.1315363
000030 93 7e 2b 3e 3b 26 34 be 23 c6 ba 3d 6f b9 f5 3d
       0.16747503 -0.17592709 0.09119823 0.11998259
000040 66 1d 60 3d 24 74 34 3d 35 b9 ad 3d 1c cb 9f 3c
       0.054715537 0.044056073 0.08482591 0.01950603
000050 72 28 b1 bc d8 44 02 3d 03 06 63 3c b0 40 c2 bd
       -0.021625731 0.031803936 0.013856414 -0.094849944
000060 dc 40 a0 bc 7d 3e 1d 3e 39 f9 6a 3d 6e a6 fe 3d
       -0.019562177 0.15355869 0.057366583 0.12434088
000070 b2 de a9 3d 97 dc 31 3e d0 71 55 bd 1d f8 0a be
       0.08294429 0.17369305 -0.052110493 -0.1357121
000080 ef df 10 3e 6d 00 9d bd ee 6d c6 3c 2a 20 2d bd
       0.14147924 -0.07666097 0.02422234 -0.042267002
000090 43 7e 08 3c d2 98 a0 3c 17 e1 7e 3c b8 79 70 3d
       0.008330884 0.01960412 0.015556595 0.05870983
0000a0 5c 2c e8 bd f0 7c f0 3d f9 5b 8e bd 2c 2b 92 3d
       -0.11336586 0.1174258 -0.06951136 0.07137141
0000b0 5b a2 d9 bc f7 d2 c1 bd cb 2f 14 be e2 ad f6 ba
       -0.026566675 -0.094640665 -0.14471357 -0.0018820132
0000c0 41 0f 2b 3e 0b 8c ab bd 44 27 84 3e 57 ae 20 3e
       0.16705038 -0.083763205 0.25811207 0.15691505
0000d0 b1 eb 77 3b b8 1e 36 bd 52 10 22 be fc 17 3f 3d
       0.0037829692 -0.04446289 -0.15826538 0.046653733
0000e0 8b ea 21 3b eb 3e df bd ef 0d 99 bd 9b 9d c2 bd
       0.002470645 -0.109006725 -0.07473361 -0.09502717
0000f0 b6 4d 1f be f5 8a 81 3c 58 28 2e 3e d2 47 0c 3d
       -0.15556988 0.01581333 0.17007577 0.03424818
000100 b7 b8 7d bc 03 9a b5 3c a6 7a 83 3d 25 0c 8e 3b
       -0.015485934 0.022168165 0.06419878 0.004334944
000110 79 64 02 3d 25 70 28 3e aa 6f 9c 3d 37 1b 1d bb
       0.0318341 0.1644903 0.07638486 -0.002397252
000120 8c 54 20 3e 22 71 82 3a 4c 00 70 3d ae f0 81 bc
       0.15657252 0.0009951929 0.058594033 -0.015861835
000130 b2 42 21 3e f9 fe 12 be 53 80 ac 3d fa 14 99 bc
       0.15748098 -0.14355077 0.084229134 -0.01868676
000140 5a 8e 76 bd 4b f9 4f 3e ee 11 cd bc 24 93 16 3d
       -0.06019435 0.20309941 -0.025032964 0.036761418
000150 32 9c 30 3d b7 b4 bb 3c 12 a3 40 3d 77 cf ae 3d
       0.04311771 0.02291332 0.047030516 0.085356645
000160 12 91 b8 3a 2e f6 74 3e ce a5 55 3e 04 8e bd b8
       0.001408132 0.23922035 0.2086403 -9.038675e-05
000170 73 cc 6a 3e 49 60 30 3d 37 c9 c7 bb f3 81 19 3d
       0.22929554 0.043060575 -0.0060969847 0.037477445
000180 59 56 ed 3b a2 ea 48 3d f1 07 36 3d 92 73 29 bb
       0.0072429595 0.04905189 0.044441167 -0.0025856239
000190 20 a9 e8 3c 57 b7 16 bd cf 17 c8 bc 4a a2 13 3e
       0.028400958 -0.03679594 -0.024425415 0.14417377
0001a0 a7 d7 96 3c 93 81 c8 bd b3 09 d0 3d ce 01 4a bd
       0.018413378 -0.09790339 0.101581 -0.049318127
0001b0 9a 02 2a 3d 09 4a 12 3e 33 20 e1 3c 35 33 c3 3d
       0.041506387 0.14286055 0.027481174 0.09531251
0001c0 91 ef a2 bd 34 78 e2 3d 3a 60 39 bd 5f 07 8d 3d
       -0.0795585 0.11058083 -0.045257784 0.068861715
0001d0 e3 a8 16 bd bb 4d be bc 3b 92 17 be e6 f5 15 3e
       -0.036782157 -0.023230424 -0.14801876 0.14644584
0001e0 72 97 3c be 8a 4c af 3c 64 1e e4 bd 08 0b 1b bd
       -0.18417147 0.021398801 -0.11138609 -0.037852317
0001f0 4d 4c 93 3d b6 30 00 be 9d 0b 90 3c 6d 93 9b bb
       0.071922876 -0.12518582 0.017583663 -0.004747799
000200 ea 5b ab bd 68 35 00 3c f7 2a 3e bb 92 b2 29 3e
       -0.083671406 0.007825233 -0.0029017308 0.16572025
000210 ff 82 4a 3d 73 ed 27 bd 7b cf b7 3d 3e 7d 08 3c
       0.049441334 -0.040997934 0.08975121 0.008330641
000220 26 1a b2 bb 32 4a eb 3c 05 91 c3 3d eb 09 98 3d
       -0.005435246 0.028721903 0.09549145 0.07423767
000230 91 bc d2 bd 73 43 01 3d 24 f6 37 3c f6 08 04 3e
       -0.102898724 0.031558465 0.011228118 0.12894043
000240 96 bd 56 3c 11 b6 28 be 45 83 7d bd 73 c2 b8 3d
       0.013106724 -0.16475703 -0.061892767 0.09021463
000250 92 7c 3c 3d 04 50 a5 ba 72 b9 f9 3b 2a 1b c1 3b
       0.046017237 -0.0012612347 0.0076209838 0.005893131
000260 b0 4c f7 3c 89 9f d2 3d 3f ce ef bd 00 c5 82 3d
       0.030187935 0.10284335 -0.1170926 0.06385231
000270 c1 3f 97 bd 49 b2 6b bd 0b ec 1f 3e c4 39 bb 3b
       -0.07385207 -0.057543073 0.15617387 0.0057136733
000280 0c 57 6e 3d a3 7b 26 3d 7b 2c 25 3e 5a 2e 81 bc
       0.058188483 0.040645253 0.16130249 -0.015769172
000290 70 9b 12 bd 48 67 13 3e dc b2 23 bd 6c 3f 81 bd
       -0.035792768 0.14394867 -0.039965495 -0.06310925
0002a0 da bc c5 3d cf f1 8d 3d 9b 2d 19 bd bc fd 7e bc
       0.09655161 0.06930887 -0.03739701 -0.015563425
0002b0 ec 37 b4 3e 8b a3 5a bd 76 29 08 bd e5 2e b2 3d
       0.35198915 -0.053378623 -0.033242665 0.08700351
0002c0 f8 d2 6c bd 3f a3 77 3a 2a f5 23 3e d8 b4 83 3e
       -0.057818383 0.0009446628 0.16011491 0.2572391
0002d0 39 cc 2e 3e 16 98 28 3d c9 02 da 3c 5b 32 c7 3c
       0.17070092 0.041160665 0.026612656 0.024316004
0002e0 6a 22 f8 3c 28 b0 ef bb 0c f9 5e 3d 58 e2 b1 3d
       0.030289847 -0.0073147006 0.05443673 0.0868575
0002f0 13 59 34 3c eb 35 a5 3a 16 59 88 3d 5c 72 a7 3d
       0.011007565 0.001260457 0.06657617 0.08176109
000300 91 b3 da bc 07 7f a7 bb 90 78 e2 bd 5e 05 e0 3d
       -0.026696952 -0.0051115784 -0.11058152 0.10938524
000310 5e 28 fd bc d3 d1 29 3d 75 80 ef bc 61 81 10 3d
       -0.030903038 0.04145987 -0.029236058 0.035279635
000320 de 93 96 3d 08 6c e5 bd c4 64 d9 3d 19 22 a3 bd
       0.07352422 -0.11202246 0.10614923 -0.07965488
000330 a9 58 75 bc 01 5e ec 3d 32 5a be bd 9f cf 6f 3e
       -0.0149747515 0.11541367 -0.09294547 0.23419045
000340 ed c0 4f bd 81 01 95 3b 53 83 96 bd 5b 0e 44 bb
       -0.050721098 0.0045472984 -0.07349267 -0.0029915783
000350 dc db 75 3e 7e e2 26 3d c3 af c0 3d 0c eb 29 3e
       0.24009651 0.040743344 0.09408524 0.1659357
000360 79 de 46 bd 13 39 0d bc 32 24 49 bd 9a e4 f1 bd
       -0.04855201 -0.008619565 -0.049106784 -0.118111804
000370 b5 f1 f4 3d 99 4a 42 be 96 a7 c3 bd 93 b7 cf 3b
       0.119601645 -0.18973769 -0.09553449 0.0063390224
000380 b3 69 84 3d 02 be 4d 3e 90 a4 97 3d d1 be d1 3c
       0.06465473 0.20092013 0.07404435 0.025603684
000390 50 da 91 3d 0f 79 1c 3d 9f 9c 61 3d 52 42 21 3c
       0.07121718 0.038201388 0.055081006 0.009842472
0003a0 81 94 3f 3d b8 0f 61 3d 2a f5 59 3d f0 89 af bd
       0.046772484 0.05494663 0.053212322 -0.08571231
0003b0 10 69 40 3d ee cf 8a 3e d3 04 1b 3d 41 b9 62 bd
       0.046975195 0.27111763 0.037846398 -0.055352453

siamesefcpp_1/MobilenetV3/expanded_conv/project/Conv2D f4 [16, 1, 1, 16]
000000 0a 06 0e 3f e8 4c 58 be b6 f5 3a 3e 24 9c 28 3e
       0.55477965 -0.21123087 0.18257794 0.16465813
000010 31 74 32 be d2 a4 f1 bc ad 54 62 3e ab 96 65 be
       -0.17427136 -0.029497538 0.22102614 -0.22420757
000020 4c 39 29 be 68 0e 66 3e f7 11 c8 bc 97 f3 2e 3d
       -0.16525763 0.22466433 -0.024422629 0.042712774
000030 ff 70 f2 bc 01 1d e8 be e3 1a a8 bc d3 7f 18 be
       -0.029594896 -0.45334628 -0.020520633 -0.14892511
000040 75 0b b8 3e 93 b8 23 3e 4d 0f c5 bc 41 e9 31 3d
       0.3594624 0.15988378 -0.024055148 0.04343534
000050 9a 46 a7 3e ae 2e 9b be e8 c7 53 3d fc 6f 58 3b
       0.32671052 -0.3030905 0.051704317 0.0033025732
000060 62 9f 14 3e 94 6a c8 3e 9b c4 06 bc 1b 70 9f 3e
       0.14513925 0.39143813 -0.008225585 0.31140217
000070 aa 27 48 3e 0c 17 da 3e a9 63 e4 3d 72 18 eb 3e
       0.1954638 0.42595708 0.11151821 0.45917088
000080 b7 6f bb 3c 96 1c ad 3e 50 ce f5 bc 79 1f 85 3b
       0.022880418 0.33810872 -0.030005604 0.0040625897
000090 fd 29 98 3e f2 ed dd bb 6b f3 10 3d 09 3f 45 3e
       0.29719535 -0.00677275 0.03538839 0.19262327
0000a0 67 02 a5 bd ef f6 ce 3d 56 f6 f8 3d e7 42 cd 3d
       -0.08057099 0.101056926 0.1215636 0.10022526
0000b0 30 46 b4 3d 8c e7 80 3e 30 4d d2 bb ca f0 1e 3d
       0.0880245 0.25176656 -0.006417893 0.038803853
0000c0 ca d6 6b 3e 9c 67 83 3e bd c7 0d be ba e5 21 bd
       0.23031154 0.25664985 -0.13845725 -0.039525725
0000d0 c6 b7 00 3e 0d 95 11 3d 8c d8 8a be 64 33 f2 bc
       0.12570104 0.035542537 -0.27118337 -0.02956552
0000e0 42 82 9b 3d 62 4c 64 3e 19 d5 a9 bd 51 f8 3e be
       0.07593204 0.22294763 -0.08292598 -0.18649413
0000f0 b7 64 d7 3d ab e8 1b 3f 3a 45 88 bd c6 68 21 3e
       0.10517257 0.609019 -0.06653829 0.15762624
000100 f6 fc 07 bd b5 00 d7 3e df df 72 be e4 38 b7 bd
       -0.033200227 0.41992727 -0.23718213 -0.08946398
000110 a8 4a b8 3e 97 a1 c0 be 04 ca 5b bc 01 08 f1 3d
       0.35994458 -0.37623283 -0.0134148635 0.11769105
000120 71 5c e9 3d 0a 1f 65 3c ac df da 3d d4 b1 ec 3e
       0.11394585 0.013984451 0.10687193 0.46229422
000130 b2 9f a6 3e 27 cc a0 be b0 c7 0a 3e cd a2 1e be
       0.32543713 -0.31405756 0.13552737 -0.15491791
000140 e0 70 51 be dd 58 87 be b9 5e d4 3d cb 4f b4 3c
       -0.20453215 -0.26434985 0.103696294 0.022010705
000150 54 4d 6b be 66 b0 ff 3c 2f 4f 4a 3d 3f d7 94 3e
       -0.22978717 0.031212043 0.04939192 0.2907047
000160 a6 1c ba 3d bf 46 52 be 7b 55 6a bc 79 72 f1 bd
       0.090874955 -0.205348 -0.014302607 -0.11789412
000170 bc 01 3d 3c 30 69 cd be fd 63 14 be 9e 5e cb bd
       0.011536058 -0.40119314 -0.14491268 -0.09930156
000180 d3 ad 02 bf b0 93 01 be bd 6d f2 be 75 5a d3 bd
       -0.51046485 -0.12653995 -0.4734935 -0.10319988
000190 74 eb e6 be c9 57 87 3e ef 01 40 3d 95 38 1e 3f
       -0.4510151 0.26434162 0.046876844 0.6180509
0001a0 c4 24 f7 3d c3 0c b5 bd 19 a4 a3 be 8b b1 22 be
       0.12067559 -0.08840325 -0.31961134 -0.1588804
0001b0 db 40 3a be 45 00 47 bf a2 4b d2 be 83 59 fc bd
       -0.18188803 -0.77734786 -0.41073328 -0.123217605
0001c0 c9 77 3e be c2 da 38 bd df 0f 7f be ea 32 23 be
       -0.18600382 -0.0451305 -0.24908398 -0.15937391
0001d0 13 84 a0 3e 0d 1c f2 3e 47 10 eb be c0 ec 5e 3e
       0.31350765 0.47287026 -0.45910856 0.2177
0001e0 86 8e 39 3e 13 ec 44 be dd e3 18 be 68 89 05 3e
       0.18120775 -0.1923068 -0.14930673 0.13040698
0001f0 21 3f 98 be e5 25 b6 3e 01 18 0f bf e4 25 64 3e
       -0.29735664 0.35575786 -0.55896 0.22280079
000200 64 db 53 3e b4 45 93 be 19 d6 da 3d 82 da 96 3e
       0.2068916 -0.28764117 0.10685367 0.29463583
000210 53 28 9c be cc c1 11 3e fe b4 a5 3b dc 25 31 be
       -0.30499515 0.14234084 0.0050569763 -0.17299598
000220 ca 30 7f 3e 04 48 83 bd 75 9f 5b bd 14 16 44 bd
       0.24920955 -0.0641022 -0.053618867 -0.047872618
000230 b8 82 ce 3c c7 47 a5 be 04 76 44 3c c8 53 23 3e
       0.025208816 -0.32281324 0.011991028 0.15949929
000240 79 6d 99 3e af 66 b5 3d db 7a 3d 3d 12 9f a3 3e
       0.29966334 0.08857476 0.046259742 0.319573
000250 c1 af 0c be c4 37 10 bf e6 fe 8f bd 4f ff f8 bd
       -0.1373892 -0.5633509 -0.0703104 -0.12158071
000260 81 7b 14 be 9b 58 a0 bd a8 87 81 3e 82 8e 03 be
       -0.14500238 -0.078294 0.2529881 -0.12847331
000270 01 f0 58 3d 41 23 fa be a1 7f 54 3e 56 a2 04 be
       0.05296326 -0.48855022 0.20751812 -0.12952551
000280 c7 eb 93 3e 9b 67 86 bd d6 8b d0 be 43 5c 7c 3d
       0.2889082 -0.0656273 -0.40731686 0.061611425
000290 5c 9d 6d 3c 4e 19 2b bf c4 5c 8d 3e 2e 09 dd bd
       0.014502849 -0.66835487 0.27609837 -0.107927665
0002a0 5f 54 0c bf 9e 38 72 3e 62 c6 19 3f 8f c2 e7 be
       -0.5481624 0.2365441 0.60068333 -0.45265624
0002b0 41 77 df 3e 3f 5e 1c 3d 38 7e ec be 38 68 74 3e
       0.4364567 0.038175818 -0.46190047 0.23867881
0002c0 79 3a 15 be f3 9d be be 99 c4 90 3e 9d cb 9b 3d
       -0.14573087 -0.3722988 0.28274992 0.076071955
0002d0 03 63 95 be f8 4d e4 be 21 62 e4 3d f0 6a 32 be
       -0.29177102 -0.44590735 0.11151529 -0.17423606
0002e0 60 9c 09 3d 26 79 98 be 18 7b a9 bd 57 06 2b be
       0.033596396 -0.2977993 -0.082754314 -0.16701637
0002f0 e4 8a af 3e 5b f7 ba ba 7b 62 29 be 9c 75 06 be
       0.34285653 -0.0014264392 -0.16541474 -0.13130802
000300 c9 e4 bf bd e7 93 71 3e 1b f0 a0 3d 61 31 e5 bc
       -0.09369809 0.23591577 0.078582965 -0.027977647
000310 e9 1f ae 3e 1f 68 54 3e e7 35 ac bd f0 66 0a 3e
       0.3400872 0.20742844 -0.084087186 0.1351583
000320 a5 0b 87 bd b8 3f 2c 3d b0 67 50 3e 91 56 f6 bd
       -0.06594018 0.042052954 0.20352054 -0.1202823
000330 54 fe 05 3e 6d 04 e3 3e 86 ec 4d be 57 0a 71 be
       0.130853 0.44339314 -0.20109758 -0.235391
000340 9a 09 02 3e dc 6e 3c be 26 db bb 3d 81 d5 9c 3d
       0.12698975 -0.18401664 0.091726586 0.0765791
000350 5a 0d 61 be d2 42 78 bd ce be 58 3e bb 59 77 bd
       -0.2197775 -0.0606106 0.21166536 -0.060388308
000360 53 6b ae 3d 39 53 33 be df 50 8a ba 08 b1 5b be
       0.08516564 -0.17512216 -0.0010552666 -0.21454251
000370 c7 23 97 3d 90 22 04 bf 04 d0 36 3d 9f 9f 23 3d
       0.07379871 -0.5161524 0.044631973 0.03994715
000380 52 36 33 3e 8d 0d 1b be 61 3e e8 bc 4d 59 5e 3e
       0.1750119 -0.15141888 -0.028350057 0.21713753
000390 37 6f f0 bc d3 5f 3a be 52 97 2c 3e 94 7f 1b bc
       -0.029349906 -0.18200617 0.16854599 -0.009490866
0003a0 6b 09 af 3d 8e b7 cd 3c 5a 2f d8 bd 4b 15 2a 3c
       0.08546718 0.02511194 -0.105559066 0.010381053
0003b0 b0 e3 9a bd 5b e5 fe be 43 76 31 bd c6 31 8e 3d
       -0.07562959 -0.4978436 -0.043325674 0.06943087
0003c0 33 bb 0c 3b 96 16 17 bc 81 16 8d 3b 96 17 49 3e
       0.0021473884 -0.0092216935 0.004305661 0.19637904
0003d0 6f 7e b2 bd 61 ff 8d be ad f2 e8 3d b3 58 d2 bd
       -0.087155215 -0.277339 0.11374412 -0.10270824
0003e0 83 0e 1f bd 9a ec c6 bd 00 78 3f 3e 32 52 9d be
       -0.0388322 -0.09713097 0.1869812 -0.30726773
0003f0 ef 6e 3a 3e c8 2e b7 bd 86 b7 12 3e e0 9e 54 be
       0.1820638 -0.0894447 0.14327821 -0.20763731
